models/facial_expression_smile_best_auroc_baal/predictive_model/model.pth (torch, 1676 bytes, 1 tensors)

fc.weight f4 [1, 42]
0	0xbe2b3700	-0.167202
1	0x3ddd957d	0.10819528
2	0x3e5eb24a	0.217477
3	0x3ec38744	0.38189137
4	0xbeb0f631	-0.3456283
5	0xbe05c87a	-0.13064757
6	0xbfeb45b0	-1.8380642
7	0xbec82f4f	-0.39098594
8	0x3f0220c9	0.50831276
9	0x3e0b80a9	0.13623299
10	0xbe252995	-0.16129144
11	0x3de295fe	0.11063765
12	0xbd89dcb5	-0.0673155
13	0xbe4dbaab	-0.2009074
14	0x3e53c29e	0.2067971
15	0x3e085f52	0.13317612
16	0xbe495a78	-0.19663417
17	0xbd9d79a8	-0.0768922
18	0xbdf7c2d9	-0.12097711
19	0xbdc8109d	-0.09768794
20	0xbcaab699	-0.020839022
21	0xbe409eec	-0.18810624
22	0xbe83e397	-0.25759575
23	0xbea4d895	-0.3219649
24	0x3ec7cfc1	0.3902569
25	0xbdf5dca3	-0.12004974
26	0xbd7f92a8	-0.06239572
27	0xbed52eab	-0.41637167
28	0x3da74899	0.08168144
29	0xbe380403	-0.1797028
30	0xbde09844	-0.10966542
31	0xbe31520c	-0.17316455
32	0xbdf7f8d5	-0.12108008
33	0x3dc7bf43	0.09753277
34	0x3e4104e1	0.18849517
35	0x3f2e85a8	0.68172693
36	0x3e97ef37	0.29674694
37	0x3e04ae45	0.12957104
38	0xbe81be3e	-0.25340456
39	0x3dbaa10a	0.09112747
40	0xbdbe2011	-0.0928346
41	0xbe729459	-0.23689403
